…
          "base_uri": "https://localhost:8080/"
        },
        "outputId": "90bd73d2-54d6-4739-c03c-6d8805fde160"
      },
      "source": [
        "model.summary()"
      ],
      "execution_count": 7,
      "outputs": [
        {
          "output_type": "stream",
          "text": [
            "Model: \"sequential\"\n",
            "_________________________________________________________________\n",
            "Layer (type)                 Output Shape              Param #   \n",
            "=================================================================\n",
            "conv2d (Conv2D)              (None, 222, 222, 32)      896       \n",
            "_________________________________________________________________\n",
            "conv2d_1 (Conv2D)            (None, 220, 220, 64)      18496     \n",
            "_________________________________________________________________\n",
            "max_pooling2d (MaxPooling2D) (None, 110, 110, 64)      0         \n",
            "_________________________________________________________________\n",
            "dropout (Dropout)            (None, 110, 110, 64)      0         \n",
            "_________________________________________________________________\n",
            "conv2d_2 (Conv2D)            (None, 108, 108, 64)      36928     \n",
            "_________________________________________________________________\n",
            "max_pooling2d_1 (MaxPooling2 (None, 54, 54, 64)        0         \n",
            "_________________________________________________________________\n",
            "dropout_1 (Dropout)          (None, 54, 54, 64)        0         \n",
            "_________________________________________________________________\n",
            "conv2d_3 (Conv2D)            (None, 52, 52, 128)       73856     \n",
            "_________________________________________________________________\n",
            "max_pooling2d_2 (MaxPooling2 (None, 26, 26, 128)       0         \n",
            "_________________________________________________________________\n",
            "dropout_2 (Dropout)          (None, 26, 26, 128)       0         \n",
            "_________________________________________________________________\n",
            "flatten (Flatten)            (None, 86528)             0         \n",
            "_________________________________________________________________\n",
            "dense (Dense)                (None, 64)                5537856   \n",
            "_________________________________________________________________\n",
            "dropout_3 (Dropout)          (None, 64)                0         \n",
            "_________________________________________________________________\n",
            "dense_1 (Dense)              (None, 1)                 65        \n",
            "=================================================================\n",
            "Total params: 5,668,097\n",
            "Trainable params: 5,668,097\n",
            "Non-trainable params: 0\n",
            "_________________________________________________________________\n"
          ],
          "name": "stdout"
        }
      ]
    },
    {
      "cell_type": "code",
…
